…
  world_size: 1

2025-07-22 12:37:31,509 INFO: Dataset Dataset_PairedImage - EUVPSet is created.
2025-07-22 12:37:31,509 INFO: Number of test images in EUVPSet: 200
2025-07-22 12:37:31,511 INFO: Dataset Dataset_PairedImage - UIEBSet is created.
2025-07-22 12:37:31,511 INFO: Number of test images in UIEBSet: 90
2025-07-22 12:37:31,514 INFO: Dataset Dataset_PairedImage - LSUISet is created.
2025-07-22 12:37:31,514 INFO: Number of test images in LSUISet: 200
2025-07-22 12:37:31,739 INFO: Network: UWNet, with parameters: 409,857
2025-07-22 12:37:31,739 INFO: UWNet(
  (embed): OverlapPatchEmbed(
    (proj): Conv2d(3, 32, kernel_size=(3, 3), stride=(1, 1), padding=(1, 1), bias=False)
  )
  (recon): Conv2d(32, 3, kernel_size=(3, 3), stride=(1, 1), padding=(1, 1))
  (middle): Block(
    (dwtblock): DWTBlock(
      (norm): LayerNorm(
        (body): WithBias_LayerNorm()
      )
      (xfm): DWTForward()
      (ifm): DWTInverse()
      (high_branch): HighFrequencyBlock(
        (fuse_conv): Sequential(
          (0): Conv2d(128, 128, kernel_size=(3, 3), stride=(1, 1), padding=(1, 1), groups=128)
          (1): Conv2d(128, 256, kernel_size=(1, 1), stride=(1, 1))
          (2): BatchNorm2d(256, eps=1e-05, momentum=0.1, affine=True, track_running_stats=True)
          (3): GELU(approximate='none')
        )
        (attn): Sequential(
          (0): Conv2d(256, 256, kernel_size=(3, 3), stride=(1, 1), padding=(1, 1), groups=256)
          (1): Conv2d(256, 256, kernel_size=(1, 1), stride=(1, 1))
          (2): Sigmoid()
        )
        (prj): Sequential(
          (0): Conv2d(256, 256, kernel_size=(3, 3), stride=(1, 1), padding=(1, 1), groups=256)
          (1): Conv2d(256, 128, kernel_size=(1, 1), stride=(1, 1))
          (2): BatchNorm2d(128, eps=1e-05, momentum=0.1, affine=True, track_running_stats=True)
          (3): GELU(approximate='none')
        )
        (mask_conv): Sequential(
          (0): Conv2d(128, 128, kernel_size=(3, 3), stride=(1, 1), padding=(1, 1), groups=128)
          (1): Conv2d(128, 4, kernel_size=(1, 1), stride=(1, 1))
          (2): PixelShuffle(upscale_factor=2)
          (3): Sigmoid()
        )
      )
      (low_branch): LowFrequencyBlock(
        (prj1): Sequential(
          (0): Conv2d(128, 128, kernel_size=(3, 3), stride=(1, 1), padding=(1, 1), groups=128, bias=False)
          (1): Conv2d(128, 128, kernel_size=(1, 1), stride=(1, 1), bias=False)
          (2): GELU(approximate='none')
        )
        (ca): ChannelAttention(
          (avg_pool): AdaptiveAvgPool2d(output_size=1)
          (max_pool): AdaptiveMaxPool2d(output_size=1)
          (fc): Sequential(
            (0): Conv2d(128, 64, kernel_size=(1, 1), stride=(1, 1), bias=False)
            (1): GELU(approximate='none')
            (2): Conv2d(64, 128, kernel_size=(1, 1), stride=(1, 1), bias=False)
          )
          (sigmoid): Sigmoid()
        )
        (prj2): Sequential(
          (0): Conv2d(128, 128, kernel_size=(3, 3), stride=(1, 1), padding=(1, 1), groups=128, bias=False)
          (1): Conv2d(128, 128, kernel_size=(1, 1), stride=(1, 1), bias=False)
          (2): GELU(approximate='none')
        )
        (sa): SpatialAttention(
          (conv1): Sequential(
            (0): Conv2d(2, 1, kernel_size=(7, 7), stride=(1, 1), padding=(3, 3), bias=False)
          )
          (sigmoid): Sigmoid()
        )
      )
      (prj_conv): Conv2d(128, 128, kernel_size=(1, 1), stride=(1, 1))
    )
  )
  (encoders): ModuleList(
    (0): Block(
      (dwtblock): DWTBlock(
        (norm): LayerNorm(
          (body): WithBias_LayerNorm()
        )
        (xfm): DWTForward()
        (ifm): DWTInverse()
        (high_branch): HighFrequencyBlock(
          (fuse_conv): Sequential(
            (0): Conv2d(32, 32, kernel_size=(3, 3), stride=(1, 1), padding=(1, 1), groups=32)
            (1): Conv2d(32, 64, kernel_size=(1, 1), stride=(1, 1))
            (2): BatchNorm2d(64, eps=1e-05, momentum=0.1, affine=True, track_running_stats=True)
            (3): GELU(approximate='none')
          )
          (attn): Sequential(
            (0): Conv2d(64, 64, kernel_size=(3, 3), stride=(1, 1), padding=(1, 1), groups=64)
            (1): Conv2d(64, 64, kernel_size=(1, 1), stride=(1, 1))
            (2): Sigmoid()
          )
          (prj): Sequential(
            (0): Conv2d(64, 64, kernel_size=(3, 3), stride=(1, 1), padding=(1, 1), groups=64)
            (1): Conv2d(64, 32, kernel_size=(1, 1), stride=(1, 1))
            (2): BatchNorm2d(32, eps=1e-05, momentum=0.1, affine=True, track_running_stats=True)
            (3): GELU(approximate='none')
          )
          (mask_conv): Sequential(
            (0): Conv2d(32, 32, kernel_size=(3, 3), stride=(1, 1), padding=(1, 1), groups=32)
            (1): Conv2d(32, 4, kernel_size=(1, 1), stride=(1, 1))
            (2): PixelShuffle(upscale_factor=2)
            (3): Sigmoid()
          )
        )
        (low_branch): LowFrequencyBlock(
          (prj1): Sequential(
            (0): Conv2d(32, 32, kernel_size=(3, 3), stride=(1, 1), padding=(1, 1), groups=32, bias=False)
            (1): Conv2d(32, 32, kernel_size=(1, 1), stride=(1, 1), bias=False)
            (2): GELU(approximate='none')
          )
          (ca): ChannelAttention(
            (avg_pool): AdaptiveAvgPool2d(output_size=1)
            (max_pool): AdaptiveMaxPool2d(output_size=1)
            (fc): Sequential(
              (0): Conv2d(32, 16, kernel_size=(1, 1), stride=(1, 1), bias=False)
              (1): GELU(approximate='none')
              (2): Conv2d(16, 32, kernel_size=(1, 1), stride=(1, 1), bias=False)
            )
            (sigmoid): Sigmoid()
          )
          (prj2): Sequential(
            (0): Conv2d(32, 32, kernel_size=(3, 3), stride=(1, 1), padding=(1, 1), groups=32, bias=False)
            (1): Conv2d(32, 32, kernel_size=(1, 1), stride=(1, 1), bias=False)
            (2): GELU(approximate='none')
          )
          (sa): SpatialAttention(
            (conv1): Sequential(
              (0): Conv2d(2, 1, kernel_size=(7, 7), stride=(1, 1), padding=(3, 3), bias=False)
            )
            (sigmoid): Sigmoid()
          )
        )
        (prj_conv): Conv2d(32, 32, kernel_size=(1, 1), stride=(1, 1))
      )
    )
    (1): Downsample(
      (body): Sequential(
        (0): Conv2d(32, 32, kernel_size=(3, 3), stride=(1, 1), padding=(1, 1), groups=32, bias=False)
        (1): Conv2d(32, 16, kernel_size=(1, 1), stride=(1, 1), bias=False)
        (2): PixelUnshuffle(downscale_factor=2)
      )
    )
    (2): Block(
      (dwtblock): DWTBlock(
        (norm): LayerNorm(
          (body): WithBias_LayerNorm()
        )
        (xfm): DWTForward()
        (ifm): DWTInverse()
        (high_branch): HighFrequencyBlock(
          (fuse_conv): Sequential(
            (0): Conv2d(64, 64, kernel_size=(3, 3), stride=(1, 1), padding=(1, 1), groups=64)
            (1): Conv2d(64, 128, kernel_size=(1, 1), stride=(1, 1))
            (2): BatchNorm2d(128, eps=1e-05, momentum=0.1, affine=True, track_running_stats=True)
            (3): GELU(approximate='none')
          )
          (attn): Sequential(
            (0): Conv2d(128, 128, kernel_size=(3, 3), stride=(1, 1), padding=(1, 1), groups=128)
            (1): Conv2d(128, 128, kernel_size=(1, 1), stride=(1, 1))
            (2): Sigmoid()
          )
          (prj): Sequential(
            (0): Conv2d(128, 128, kernel_size=(3, 3), stride=(1, 1), padding=(1, 1), groups=128)
            (1): Conv2d(128, 64, kernel_size=(1, 1), stride=(1, 1))
            (2): BatchNorm2d(64, eps=1e-05, momentum=0.1, affine=True, track_running_stats=True)
            (3): GELU(approximate='none')
          )
          (mask_conv): Sequential(
            (0): Conv2d(64, 64, kernel_size=(3, 3), stride=(1, 1), padding=(1, 1), groups=64)
            (1): Conv2d(64, 4, kernel_size=(1, 1), stride=(1, 1))
            (2): PixelShuffle(upscale_factor=2)
            (3): Sigmoid()
          )
        )
        (low_branch): LowFrequencyBlock(
          (prj1): Sequential(
            (0): Conv2d(64, 64, kernel_size=(3, 3), stride=(1, 1), padding=(1, 1), groups=64, bias=False)
            (1): Conv2d(64, 64, kernel_size=(1, 1), stride=(1, 1), bias=False)
            (2): GELU(approximate='none')
          )
          (ca): ChannelAttention(
            (avg_pool): AdaptiveAvgPool2d(output_size=1)
            (max_pool): AdaptiveMaxPool2d(output_size=1)
            (fc): Sequential(
              (0): Conv2d(64, 32, kernel_size=(1, 1), stride=(1, 1), bias=False)
              (1): GELU(approximate='none')
              (2): Conv2d(32, 64, kernel_size=(1, 1), stride=(1, 1), bias=False)
            )
            (sigmoid): Sigmoid()
          )
          (prj2): Sequential(
            (0): Conv2d(64, 64, kernel_size=(3, 3), stride=(1, 1), padding=(1, 1), groups=64, bias=False)
            (1): Conv2d(64, 64, kernel_size=(1, 1), stride=(1, 1), bias=False)
            (2): GELU(approximate='none')
          )
          (sa): SpatialAttention(
            (conv1): Sequential(
              (0): Conv2d(2, 1, kernel_size=(7, 7), stride=(1, 1), padding=(3, 3), bias=False)
            )
            (sigmoid): Sigmoid()
          )
        )
        (prj_conv): Conv2d(64, 64, kernel_size=(1, 1), stride=(1, 1))
      )
    )
    (3): Downsample(
      (body): Sequential(
        (0): Conv2d(64, 64, kernel_size=(3, 3), stride=(1, 1), padding=(1, 1), groups=64, bias=False)
        (1): Conv2d(64, 32, kernel_size=(1, 1), stride=(1, 1), bias=False)
        (2): PixelUnshuffle(downscale_factor=2)
      )
    )
  )
  (decoders): ModuleList(
    (0): Upsample(
      (body): Sequential(
        (0): Conv2d(128, 128, kernel_size=(3, 3), stride=(1, 1), padding=(1, 1), groups=128, bias=False)
        (1): Conv2d(128, 256, kernel_size=(1, 1), stride=(1, 1), bias=False)
        (2): PixelShuffle(upscale_factor=2)
      )
    )
    (1): Conv2d(128, 64, kernel_size=(1, 1), stride=(1, 1))
    (2): Block(
      (dwtblock): DWTBlock(
        (norm): LayerNorm(
          (body): WithBias_LayerNorm()
        )
        (xfm): DWTForward()
        (ifm): DWTInverse()
        (high_branch): HighFrequencyBlock(
          (fuse_conv): Sequential(
            (0): Conv2d(64, 64, kernel_size=(3, 3), stride=(1, 1), padding=(1, 1), groups=64)
            (1): Conv2d(64, 128, kernel_size=(1, 1), stride=(1, 1))
            (2): BatchNorm2d(128, eps=1e-05, momentum=0.1, affine=True, track_running_stats=True)
            (3): GELU(approximate='none')
          )
          (attn): Sequential(
            (0): Conv2d(128, 128, kernel_size=(3, 3), stride=(1, 1), padding=(1, 1), groups=128)
            (1): Conv2d(128, 128, kernel_size=(1, 1), stride=(1, 1))
            (2): Sigmoid()
          )
          (prj): Sequential(
            (0): Conv2d(128, 128, kernel_size=(3, 3), stride=(1, 1), padding=(1, 1), groups=128)
            (1): Conv2d(128, 64, kernel_size=(1, 1), stride=(1, 1))
            (2): BatchNorm2d(64, eps=1e-05, momentum=0.1, affine=True, track_running_stats=True)
            (3): GELU(approximate='none')
          )
          (mask_conv): Sequential(
            (0): Conv2d(64, 64, kernel_size=(3, 3), stride=(1, 1), padding=(1, 1), groups=64)
            (1): Conv2d(64, 4, kernel_size=(1, 1), stride=(1, 1))
            (2): PixelShuffle(upscale_factor=2)
            (3): Sigmoid()
          )
        )
        (low_branch): LowFrequencyBlock(
          (prj1): Sequential(
            (0): Conv2d(64, 64, kernel_size=(3, 3), stride=(1, 1), padding=(1, 1), groups=64, bias=False)
            (1): Conv2d(64, 64, kernel_size=(1, 1), stride=(1, 1), bias=False)
            (2): GELU(approximate='none')
          )
          (ca): ChannelAttention(
            (avg_pool): AdaptiveAvgPool2d(output_size=1)
            (max_pool): AdaptiveMaxPool2d(output_size=1)
            (fc): Sequential(
              (0): Conv2d(64, 32, kernel_size=(1, 1), stride=(1, 1), bias=False)
              (1): GELU(approximate='none')
              (2): Conv2d(32, 64, kernel_size=(1, 1), stride=(1, 1), bias=False)
            )
            (sigmoid): Sigmoid()
          )
          (prj2): Sequential(
            (0): Conv2d(64, 64, kernel_size=(3, 3), stride=(1, 1), padding=(1, 1), groups=64, bias=False)
            (1): Conv2d(64, 64, kernel_size=(1, 1), stride=(1, 1), bias=False)
            (2): GELU(approximate='none')
          )
          (sa): SpatialAttention(
            (conv1): Sequential(
              (0): Conv2d(2, 1, kernel_size=(7, 7), stride=(1, 1), padding=(3, 3), bias=False)
            )
            (sigmoid): Sigmoid()
          )
        )
        (prj_conv): Conv2d(64, 64, kernel_size=(1, 1), stride=(1, 1))
      )
    )
    (3): Upsample(
      (body): Sequential(
        (0): Conv2d(64, 64, kernel_size=(3, 3), stride=(1, 1), padding=(1, 1), groups=64, bias=False)
        (1): Conv2d(64, 128, kernel_size=(1, 1), stride=(1, 1), bias=False)
        (2): PixelShuffle(upscale_factor=2)
      )
    )
    (4): Conv2d(64, 32, kernel_size=(1, 1), stride=(1, 1))
    (5): Block(
      (dwtblock): DWTBlock(
        (norm): LayerNorm(
          (body): WithBias_LayerNorm()
        )
        (xfm): DWTForward()
        (ifm): DWTInverse()
        (high_branch): HighFrequencyBlock(
          (fuse_conv): Sequential(
            (0): Conv2d(32, 32, kernel_size=(3, 3), stride=(1, 1), padding=(1, 1), groups=32)
            (1): Conv2d(32, 64, kernel_size=(1, 1), stride=(1, 1))
            (2): BatchNorm2d(64, eps=1e-05, momentum=0.1, affine=True, track_running_stats=True)
            (3): GELU(approximate='none')
          )
          (attn): Sequential(
            (0): Conv2d(64, 64, kernel_size=(3, 3), stride=(1, 1), padding=(1, 1), groups=64)
            (1): Conv2d(64, 64, kernel_size=(1, 1), stride=(1, 1))
            (2): Sigmoid()
          )
          (prj): Sequential(
            (0): Conv2d(64, 64, kernel_size=(3, 3), stride=(1, 1), padding=(1, 1), groups=64)
            (1): Conv2d(64, 32, kernel_size=(1, 1), stride=(1, 1))
            (2): BatchNorm2d(32, eps=1e-05, momentum=0.1, affine=True, track_running_stats=True)
            (3): GELU(approximate='none')
          )
          (mask_conv): Sequential(
            (0): Conv2d(32, 32, kernel_size=(3, 3), stride=(1, 1), padding=(1, 1), groups=32)
            (1): Conv2d(32, 4, kernel_size=(1, 1), stride=(1, 1))
            (2): PixelShuffle(upscale_factor=2)
            (3): Sigmoid()
          )
        )
        (low_branch): LowFrequencyBlock(
          (prj1): Sequential(
            (0): Conv2d(32, 32, kernel_size=(3, 3), stride=(1, 1), padding=(1, 1), groups=32, bias=False)
            (1): Conv2d(32, 32, kernel_size=(1, 1), stride=(1, 1), bias=False)
            (2): GELU(approximate='none')
          )
          (ca): ChannelAttention(
            (avg_pool): AdaptiveAvgPool2d(output_size=1)
            (max_pool): AdaptiveMaxPool2d(output_size=1)
            (fc): Sequential(
              (0): Conv2d(32, 16, kernel_size=(1, 1), stride=(1, 1), bias=False)
              (1): GELU(approximate='none')
              (2): Conv2d(16, 32, kernel_size=(1, 1), stride=(1, 1), bias=False)
            )
            (sigmoid): Sigmoid()
          )
          (prj2): Sequential(
            (0): Conv2d(32, 32, kernel_size=(3, 3), stride=(1, 1), padding=(1, 1), groups=32, bias=False)
            (1): Conv2d(32, 32, kernel_size=(1, 1), stride=(1, 1), bias=False)
            (2): GELU(approximate='none')
          )
          (sa): SpatialAttention(
            (conv1): Sequential(
              (0): Conv2d(2, 1, kernel_size=(7, 7), stride=(1, 1), padding=(3, 3), bias=False)
            )
            (sigmoid): Sigmoid()
          )
        )
        (prj_conv): Conv2d(32, 32, kernel_size=(1, 1), stride=(1, 1))
      )
    )
  )
)
2025-07-22 12:37:31,739 INFO: Loading UWNet model from Under_Water/pretrained_models/model.pth.
2025-07-22 12:37:31,770 INFO: Model [ImageCleanModel] is created.
2025-07-22 12:37:31,770 INFO: Testing EUVPSet...
2025-07-22 12:37:50,938 INFO: Validation EUVPSet,		 # psnr: 27.4361	 # ssim: 0.8826	 # uiqm: 3.2262	 # uciqe: 0.4278
2025-07-22 12:37:50,938 INFO: Testing UIEBSet...
…
