…
2025-06-27 14:31:44,115 INFO: Dataset Dataset_PairedImage - TrainSet is created.
2025-06-27 14:31:44,115 INFO: Training statistics:
	Number of train images: 11435
	Dataset enlarge ratio: 1
	Batch size per gpu: 8
	World size (gpu number): 1
	Require iter number per epoch: 1430
	Total epochs: 210; iters: 300000.
2025-06-27 14:31:44,124 INFO: Dataset Dataset_PairedImage - ValSet is created.
2025-06-27 14:31:44,124 INFO: Number of val images/folders in ValSet: 515
2025-06-27 14:31:44,345 INFO: Network: WFUWNet, with parameters: 274,947
2025-06-27 14:31:44,345 INFO: WFUWNet(
  (embed): OverlapPatchEmbed(
    (proj): Conv2d(3, 32, kernel_size=(3, 3), stride=(1, 1), padding=(1, 1), bias=False)
  )
  (recon): Conv2d(32, 3, kernel_size=(3, 3), stride=(1, 1), padding=(1, 1))
  (middle): Block(
    (dwtblock): DWTBlock(
      (norm): LayerNorm(
        (body): WithBias_LayerNorm()
      )
      (xfm): DWTForward()
      (ifm): DWTInverse()
      (low_branch): LowFrequencyBlock(
        (magnitude_branch): Sequential(
          (0): DenseLayer(
            (conv): Sequential(
              (0): Conv2d(128, 16, kernel_size=(1, 1), stride=(1, 1), bias=False)
              (1): BatchNorm2d(16, eps=1e-05, momentum=0.1, affine=True, track_running_stats=True)
            )
            (leaky): LeakyReLU(negative_slope=0.1, inplace=True)
          )
          (1): Conv2d(144, 128, kernel_size=(1, 1), stride=(1, 1))
        )
        (phase_branch): Sequential(
          (0): DenseLayer(
            (conv): Sequential(
              (0): Conv2d(128, 16, kernel_size=(1, 1), stride=(1, 1), bias=False)
              (1): BatchNorm2d(16, eps=1e-05, momentum=0.1, affine=True, track_running_stats=True)
            )
            (leaky): LeakyReLU(negative_slope=0.1, inplace=True)
          )
          (1): Conv2d(144, 128, kernel_size=(1, 1), stride=(1, 1))
        )
      )
      (prj_conv): Conv2d(128, 128, kernel_size=(1, 1), stride=(1, 1))
    )
    (refine): SCFNBlock(
      (norm): LayerNorm(
        (body): WithBias_LayerNorm()
      )
      (prj_conv1): Conv2d(128, 256, kernel_size=(1, 1), stride=(1, 1))
      (conv): Conv2d(256, 256, kernel_size=(3, 3), stride=(1, 1), padding=(1, 1), groups=256)
      (act): GELU(approximate='none')
      (prj_conv2): Conv2d(256, 128, kernel_size=(1, 1), stride=(1, 1))
    )
  )
  (encoders): ModuleList(
    (0): Block(
      (dwtblock): DWTBlock(
        (norm): LayerNorm(
          (body): WithBias_LayerNorm()
        )
        (xfm): DWTForward()
        (ifm): DWTInverse()
        (low_branch): LowFrequencyBlock(
          (magnitude_branch): Sequential(
            (0): DenseLayer(
              (conv): Sequential(
                (0): Conv2d(32, 16, kernel_size=(1, 1), stride=(1, 1), bias=False)
                (1): BatchNorm2d(16, eps=1e-05, momentum=0.1, affine=True, track_running_stats=True)
              )
              (leaky): LeakyReLU(negative_slope=0.1, inplace=True)
            )
            (1): Conv2d(48, 32, kernel_size=(1, 1), stride=(1, 1))
          )
          (phase_branch): Sequential(
            (0): DenseLayer(
              (conv): Sequential(
                (0): Conv2d(32, 16, kernel_size=(1, 1), stride=(1, 1), bias=False)
                (1): BatchNorm2d(16, eps=1e-05, momentum=0.1, affine=True, track_running_stats=True)
              )
              (leaky): LeakyReLU(negative_slope=0.1, inplace=True)
            )
            (1): Conv2d(48, 32, kernel_size=(1, 1), stride=(1, 1))
          )
        )
        (prj_conv): Conv2d(32, 32, kernel_size=(1, 1), stride=(1, 1))
      )
      (refine): SCFNBlock(
        (norm): LayerNorm(
          (body): WithBias_LayerNorm()
        )
        (prj_conv1): Conv2d(32, 64, kernel_size=(1, 1), stride=(1, 1))
        (conv): Conv2d(64, 64, kernel_size=(3, 3), stride=(1, 1), padding=(1, 1), groups=64)
        (act): GELU(approximate='none')
        (prj_conv2): Conv2d(64, 32, kernel_size=(1, 1), stride=(1, 1))
      )
    )
    (1): Downsample(
      (body): Sequential(
        (0): Conv2d(32, 32, kernel_size=(3, 3), stride=(1, 1), padding=(1, 1), groups=32, bias=False)
        (1): Conv2d(32, 16, kernel_size=(1, 1), stride=(1, 1), bias=False)
        (2): PixelUnshuffle(downscale_factor=2)
      )
    )
    (2): Block(
      (dwtblock): DWTBlock(
        (norm): LayerNorm(
          (body): WithBias_LayerNorm()
        )
        (xfm): DWTForward()
        (ifm): DWTInverse()
        (low_branch): LowFrequencyBlock(
          (magnitude_branch): Sequential(
            (0): DenseLayer(
              (conv): Sequential(
                (0): Conv2d(64, 16, kernel_size=(1, 1), stride=(1, 1), bias=False)
                (1): BatchNorm2d(16, eps=1e-05, momentum=0.1, affine=True, track_running_stats=True)
              )
              (leaky): LeakyReLU(negative_slope=0.1, inplace=True)
            )
            (1): Conv2d(80, 64, kernel_size=(1, 1), stride=(1, 1))
          )
          (phase_branch): Sequential(
            (0): DenseLayer(
              (conv): Sequential(
                (0): Conv2d(64, 16, kernel_size=(1, 1), stride=(1, 1), bias=False)
                (1): BatchNorm2d(16, eps=1e-05, momentum=0.1, affine=True, track_running_stats=True)
              )
              (leaky): LeakyReLU(negative_slope=0.1, inplace=True)
            )
            (1): Conv2d(80, 64, kernel_size=(1, 1), stride=(1, 1))
          )
        )
        (prj_conv): Conv2d(64, 64, kernel_size=(1, 1), stride=(1, 1))
      )
      (refine): SCFNBlock(
        (norm): LayerNorm(
          (body): WithBias_LayerNorm()
        )
        (prj_conv1): Conv2d(64, 128, kernel_size=(1, 1), stride=(1, 1))
        (conv): Conv2d(128, 128, kernel_size=(3, 3), stride=(1, 1), padding=(1, 1), groups=128)
        (act): GELU(approximate='none')
        (prj_conv2): Conv2d(128, 64, kernel_size=(1, 1), stride=(1, 1))
      )
    )
    (3): Downsample(
      (body): Sequential(
        (0): Conv2d(64, 64, kernel_size=(3, 3), stride=(1, 1), padding=(1, 1), groups=64, bias=False)
        (1): Conv2d(64, 32, kernel_size=(1, 1), stride=(1, 1), bias=False)
        (2): PixelUnshuffle(downscale_factor=2)
      )
    )
  )
  (decoders): ModuleList(
    (0): Upsample(
      (body): Sequential(
        (0): Conv2d(128, 128, kernel_size=(3, 3), stride=(1, 1), padding=(1, 1), groups=128, bias=False)
        (1): Conv2d(128, 256, kernel_size=(1, 1), stride=(1, 1), bias=False)
        (2): PixelShuffle(upscale_factor=2)
      )
    )
    (1): Conv2d(128, 64, kernel_size=(1, 1), stride=(1, 1))
    (2): Block(
      (dwtblock): DWTBlock(
        (norm): LayerNorm(
          (body): WithBias_LayerNorm()
        )
        (xfm): DWTForward()
        (ifm): DWTInverse()
        (low_branch): LowFrequencyBlock(
          (magnitude_branch): Sequential(
            (0): DenseLayer(
              (conv): Sequential(
                (0): Conv2d(64, 16, kernel_size=(1, 1), stride=(1, 1), bias=False)
                (1): BatchNorm2d(16, eps=1e-05, momentum=0.1, affine=True, track_running_stats=True)
              )
              (leaky): LeakyReLU(negative_slope=0.1, inplace=True)
            )
            (1): Conv2d(80, 64, kernel_size=(1, 1), stride=(1, 1))
          )
          (phase_branch): Sequential(
            (0): DenseLayer(
              (conv): Sequential(
                (0): Conv2d(64, 16, kernel_size=(1, 1), stride=(1, 1), bias=False)
                (1): BatchNorm2d(16, eps=1e-05, momentum=0.1, affine=True, track_running_stats=True)
              )
              (leaky): LeakyReLU(negative_slope=0.1, inplace=True)
            )
            (1): Conv2d(80, 64, kernel_size=(1, 1), stride=(1, 1))
          )
        )
        (prj_conv): Conv2d(64, 64, kernel_size=(1, 1), stride=(1, 1))
      )
      (refine): SCFNBlock(
        (norm): LayerNorm(
          (body): WithBias_LayerNorm()
        )
        (prj_conv1): Conv2d(64, 128, kernel_size=(1, 1), stride=(1, 1))
        (conv): Conv2d(128, 128, kernel_size=(3, 3), stride=(1, 1), padding=(1, 1), groups=128)
        (act): GELU(approximate='none')
        (prj_conv2): Conv2d(128, 64, kernel_size=(1, 1), stride=(1, 1))
      )
    )
    (3): Upsample(
      (body): Sequential(
        (0): Conv2d(64, 64, kernel_size=(3, 3), stride=(1, 1), padding=(1, 1), groups=64, bias=False)
        (1): Conv2d(64, 128, kernel_size=(1, 1), stride=(1, 1), bias=False)
        (2): PixelShuffle(upscale_factor=2)
      )
    )
    (4): Conv2d(64, 32, kernel_size=(1, 1), stride=(1, 1))
    (5): Block(
      (dwtblock): DWTBlock(
        (norm): LayerNorm(
          (body): WithBias_LayerNorm()
        )
        (xfm): DWTForward()
        (ifm): DWTInverse()
        (low_branch): LowFrequencyBlock(
          (magnitude_branch): Sequential(
            (0): DenseLayer(
              (conv): Sequential(
                (0): Conv2d(32, 16, kernel_size=(1, 1), stride=(1, 1), bias=False)
                (1): BatchNorm2d(16, eps=1e-05, momentum=0.1, affine=True, track_running_stats=True)
              )
              (leaky): LeakyReLU(negative_slope=0.1, inplace=True)
            )
            (1): Conv2d(48, 32, kernel_size=(1, 1), stride=(1, 1))
          )
          (phase_branch): Sequential(
            (0): DenseLayer(
              (conv): Sequential(
                (0): Conv2d(32, 16, kernel_size=(1, 1), stride=(1, 1), bias=False)
                (1): BatchNorm2d(16, eps=1e-05, momentum=0.1, affine=True, track_running_stats=True)
              )
              (leaky): LeakyReLU(negative_slope=0.1, inplace=True)
            )
            (1): Conv2d(48, 32, kernel_size=(1, 1), stride=(1, 1))
          )
        )
        (prj_conv): Conv2d(32, 32, kernel_size=(1, 1), stride=(1, 1))
      )
      (refine): SCFNBlock(
        (norm): LayerNorm(
          (body): WithBias_LayerNorm()
        )
        (prj_conv1): Conv2d(32, 64, kernel_size=(1, 1), stride=(1, 1))
        (conv): Conv2d(64, 64, kernel_size=(3, 3), stride=(1, 1), padding=(1, 1), groups=64)
        (act): GELU(approximate='none')
        (prj_conv2): Conv2d(64, 32, kernel_size=(1, 1), stride=(1, 1))
      )
    )
  )
)
2025-06-27 14:31:44,346 INFO: Model [ImageCleanModel] is created.
2025-06-27 14:31:44,474 INFO: Start training from epoch: 0, iter: 0
2025-06-27 14:31:45,356 INFO:
 Updating Patch_Size to 256 and Batch_Size to 8

2025-06-27 14:33:33,023 INFO: [Wavel..][epoch:  0, iter:   1,000, lr:(3.000e-04,)] [eta: 9:01:01, time (data): 0.106 (0.001)] l_pix: 5.9076e-02
…
